model.ckpt (torch_old, 31973 bytes, 2 tensors)

1.weight f4 [10, 784]
0.03746586 0.0157792 0.03895583 0.052870274 0.029974079 0.011553066 -0.0058147856 0.009724725
0.03535396 0.018128121 0.044993423 0.037843052 0.022410762 -0.002629908 0.05247383 0.054480225
0.014310202 0.021754572 0.05606997 -0.0025961048 -0.012772487 0.017811881 0.04543156 0.030385768
0.02304607 0.015436506 -0.00028897414 0.014413221 0.0015671795 0.05485598 0.020638116 0.018100558
0.05440885 -0.00045720453 0.054938465 0.02227646 0.023096193 0.022506202 0.050500493 0.12602048
0.16550075 0.118750475 0.008249453 0.056808513 0.027337668 0.007850859 -0.00085705926 0.004485317
0.041502852 0.018008292 0.03227552 0.0036602218 0.018013293 0.0032954584 0.038644712 0.055443246
0.002774716 0.04751211 0.056161255 0.045248806 0.012429955 -0.0021403404 -0.03370248 -0.05749984
-0.06956569 -0.019513017 -0.060497608 -0.043833848 0.049261324 -0.15507267 -0.23448433 -0.42491418
-0.4612531 -0.23717463 -0.17709023 -0.12947986 -0.0036944037 0.044405952 0.018897071 0.04319951
0.042175494 0.058153857 0.029768521 0.0035805958 0.022567311 0.0199695 0.044179127 0.03959003
0.022566147 0.020599294 -0.10062876 -0.0742146 -0.08062735 -0.40379706 -0.12775616 0.2724121
0.22774678 0.19373988 0.15564272 -0.11443306 0.32630736 0.44531855 -0.09351316 -0.20929804
-0.065489866 0.022793243 -0.04653466 -0.07373063 -0.08119374 0.03642627 -0.007968799 -0.007906975
0.044808246 0.025690906 0.004778932 0.036331978 -0.018314354 -0.089963295 -0.08257259 -0.23835517
-0.4007512 -0.10730897 -0.12186288 0.010284035 -0.33030733 0.12844352 -0.087911814 -0.030430384
-0.07178641 0.271695 -0.11897153 -0.3642923 -0.44566405 -0.47259048 -0.2381222 -0.15995026
-0.18980785 -0.040785592 0.021701507 0.001018215 0.03712848 0.024668189 0.037718784 0.011939002
-0.03281948 -0.2052813 -0.34561428 -0.35914364 -0.17811623 -0.08840626 -0.06373766 -0.20692296
0.016131844 0.32760403 0.31345057 0.257327 0.19159189 0.33713186 0.30738053 0.13650398
0.07560433 0.033558384 -0.20844428 -0.45392174 -0.3382208 -0.016038144 0.036649045 0.004837828
0.027863288 0.0015135194 0.035059553 -0.0034920399 -0.056333147 -0.20290297 -0.10658175 0.058594935
0.015726697 0.017682342 0.06492324 -0.12163583 0.008418732 0.19248484 0.12057317 0.17564729
0.22036709 0.3374924 0.388836 0.47079575 0.20283633 0.32170686 0.350109 -0.15662257
0.070009016 0.00982162 0.0063941027 0.024693046 0.05410373 0.017341089 0.04886789 0.013550344
-0.09271971 -0.23182914 0.045825943 0.28120276 -0.12277511 0.013577289 -0.16473351 0.15275742
0.15722634 0.15563293 0.098147534 0.10798723 0.33523414 0.4472102 0.34308642 0.3557662
0.38077587 0.3565093 0.1937005 0.16269684 0.14281213 0.0062492937 0.04630214 0.046395626
0.040769696 0.01181089 0.052759256 0.054596253 -0.23297125 -0.21410911 0.05178958 0.04844837
-0.06330923 -0.1578246 0.1773793 0.023414271 0.17522809 0.18412516 0.26198915 0.45945528
0.71653193 0.5024348 0.39965275 0.34859794 0.5043032 0.43246597 0.220722 0.2638196
0.144354 0.06405658 0.05152619 0.01737222 -0.0060593807 0.014297927 0.0036536783 0.07674327
00000000: cd75 193d 6143 813c 2690 1f3d 808e 583d
00000010: 338c f53c 1249 3d3c f589 bebb 7454 1f3c
00000020: 50cf 103d 6d81 943c 064b 383d 5101 1b3d
00000030: c696 b73c 895a 2cbb ccee 563d a826 5f3d
00000040: 5675 6a3c a536 b23c a0a9 653d 6923 2abb
00000050: b143 51bc 39ea 913c 7216 3a3d 93eb f83c
00000060: 1dcb bc3c 66e9 7c3c 7481 97b9 6e25 6c3c
00000070: d169 cd3a aab0 603d 4411 a93c 9f47 943c
00000080: d0db 5e3d f4b4 efb9 2807 613d 1f7d b63c
00000090: 3a34 bd3c ed5e b83c 9bd9 4e3d 830b 013e
000000a0: 0779 293e 7333 f33d b728 073c 0bb0 683d
000000b0: 3ff3 df3c e4a0 003c 46ac 60ba 91f9 923b
000000c0: e5fe 293d 2086 933c 5633 043d 55e0 6f3b
000000d0: 9d90 933c 9ef8 573b eb49 1e3d 7518 633d
000000e0: 02d8 353b 0f9c 423d 5809 663d d056 393d
000000f0: 03a7 4b3c f444 0cbb 9d0b 0abd f484 6bbd
00000100: 7578 8ebd c3d9 9fbc 57cc 77bd 1f8b 33bd
00000110: 3ec6 493d 5fcb 1ebe a91c 70be 5a8e d9be
00000120: 5e29 ecbe e8dd 72be 2457 35be 5e96 04be
00000130: cf1d 72bb 04e3 353d 08ce 9a3c f8f1 303d
00000140: 36c0 2c3d bd32 6e3d 1ddd f33c 6ea8 6a3b
00000150: 15df b83c 1497 a33c 2cf5 343d 2829 223d
00000160: a4dc b83c dabf a83c 7416 cebd d3fd 97bd
00000170: f41f a5bd 7dbe cebe 83d2 02be 9979 8b3e
00000180: 7436 693e bf63 463e ce60 1f3e e15b eabd
00000190: c211 a73e cb00 e43e d483 bfbd 3a52 56be
000001a0: 8d1f 86bd e5b8 ba3c 219b 3ebd 1600 97bd
000001b0: e748 a6bd b633 153d 918f 02bc 428c 01bc
000001c0: da88 373d bc75 d23c 9698 9c3b d7d0 143d
000001d0: fc07 96bc ad3e b8bd d11b a9bd 6113 74be
000001e0: 432f cdbe cec4 dbbd 3f93 f9bd 5e7e 283c
000001f0: 0b1e a9be b386 033e 1c0b b4bd 2449 f9bc
00000200: c104 93bd 9b1b 8b3e 58a7 f3bd 8584 babe
00000210: 142e e4be 61f7 f1be 4ed6 73be 00ca 23be
00000220: fd5c 42be cb0e 27bd 5cc7 b13c a075 853a
00000230: 0814 183d f114 ca3c 037f 1a3d ce9b 433c
00000240: b86d 06bd 4335 52be 5bf4 b0be ade1 b7be
00000250: 1a64 36be 570e b5bd e488 82bd 9de3 53be
00000260: ee26 843c b7bb a73e 987c a03e 5dc0 833e
00000270: aa30 443e 8c9c ac3e fb60 9d3e b3c7 0b3e
00000280: 71d6 9a3d 8474 093d 6b72 55be 6e68 e8be
00000290: 472b adbe 6d62 83bc 4f1d 163d a586 9e3b
000002a0: 8d41 e43c 4961 c63a 9b9a 0f3d b5da 64bb
000002b0: 96bd 66bd ccc5 4fbe 8847 dabd 3e01 703d
000002c0: 46d5 803c 8fda 903c 7af6 843d 351c f9bd
000002d0: b9ee 093c bf1a 453e 11ef f63d e2dc 333e
000002e0: e9a7 613e cecb ac3e 8315 c73e 240c f13e
000002f0: 54b4 4f3e c3b6 a43e 7d41 b33e ab61 20be
00000300: e360 8f3d dcea 203c 9f85 d13b 1249 ca3c
00000310: df9b 5d3d e60e 8e3c b229 483d 4302 5e3c
00000320: d5e3 bdbd 9e64 6dbe fcb3 3b3d cff9 8f3e
00000330: 8471 fbbd 4773 5e3c e7af 28be 716c 1c3e
00000340: f1ff 203e 3d5e 1f3e 9301 c93d 6928 dd3d
00000350: cfa3 ab3e bcf8 e43e 06a9 af3e fd26 b63e
00000360: 0ef5 c23e 6388 b63e 6d59 463e 009a 263e
00000370: 583d 123e e0c6 cc3b 50a7 3d3d 5709 3e3d
00000380: 20fe 263d 7782 413c 171a 583d 52a0 5f3d
00000390: 0490 6ebe 6b3f 5bbe 5021 543d cc71 463d
000003a0: 45a8 81bd c69c 21be eba2 353e 49cf bf3c
000003b0: fe6e 333e 4e8b 3c3e 7123 863e b93d eb3e
000003c0: a36e 373f 919f 003f 499f cc3e 6e7b b23e
000003d0: 041a 013f 2e6c dd3e f304 623e 5d13 873e
000003e0: 89d1 133e 1930 833d 200d 533d 3050 8e3c
000003f0: c58d c6bb da41 6a3c 8d72 6f3b 932b 9d3d

1.bias f4 [10]
-0.051946737 -0.17112765 0.114864446 0.13665137 -0.098436646 -0.04048222 0.0444159 0.02950778
0.073282875 -0.001058228
00000000: 1ac6 54bd 163c 2fbe 0d3e eb3d 56ee 0b3e
00000010: 2799 c9bd afd0 25bd 72ed 353d 4dba f13c
00000020: 5515 963d 3db4 8aba
