model.ckpt (torch_old, 31973 bytes, 2 tensors)

1.weight f4 [10, 784]
000000 44 d0 8f 3d ad 1d ae 3d cb b8 5f 3d fe 87 b3 3d
       0.070221454 0.08501754 0.05461959 0.08766173
000010 a5 7a 94 3d ae 87 7c 3d 79 36 85 3d c5 82 58 3d
       0.07249955 0.06165283 0.065045305 0.052859087
000020 5e d7 b2 3d 6a ff 9a 3d 5e 60 4a 3d 91 59 41 3d
       0.08732484 0.075682476 0.04940831 0.047204558
000030 30 da ff 3c 9d 64 61 3d 3c 4e 66 3d 80 e2 9b 3d
       0.03123197 0.055027593 0.056226954 0.07611561
000040 cc 7f ab 3c c6 c4 b4 3d 00 b7 67 3d 12 26 6e 3d
       0.020934962 0.08826594 0.056571007 0.058141775
000050 7d 09 88 3d e0 5b 10 3d 07 15 a8 3d 8f 07 b9 3d
       0.06642435 0.03524387 0.08207136 0.09034645
000060 c2 79 1a 3d c2 62 92 3d 2a 50 ae 3c 8b df 8d 3d
       0.037713774 0.07147743 0.02127846 0.06927403
000070 cc 2d 03 3d 34 8b d7 3c 49 0b 28 3d b9 a5 74 3d
       0.032026097 0.026311494 0.041026387 0.059728358
000080 34 81 e2 3c ec 06 95 3d 46 5c 90 3d 84 e8 4a 3d
       0.0276495 0.07276711 0.0704885 0.04953815
000090 09 76 89 3d c5 68 78 3d f4 2d 52 3d d1 cc 5c 3d
       0.067119665 0.06064679 0.051313356 0.053906266
0000a0 f2 76 9c 3d 3b f3 b1 3d 67 03 85 3d 1b 69 50 3d
       0.076398745 0.08688971 0.064947896 0.050881486
0000b0 ab eb 96 3d 67 4f 65 3d 4e 40 66 3d 0c 86 ab 3d
       0.07369169 0.055983927 0.05621367 0.08375177
0000c0 64 21 5e 3d 1a ff dd 3c c6 fe 83 3d 78 c0 0c 3d
       0.054231063 0.027099181 0.064450786 0.03436324
0000d0 77 f8 05 3d d1 4e 8c 3d 16 27 b4 3d 44 7d a4 3d
       0.032707658 0.068509705 0.087965176 0.08031705
0000e0 b5 46 f3 3c 38 db a7 3d be 22 0b 3d 6c c7 a5 3d
       0.029696802 0.081961095 0.03396868 0.08094677
0000f0 ce 34 29 3d 0a 52 93 3d e1 80 90 3d 77 3d e1 3d
       0.041310124 0.07193382 0.07055832 0.109980516
000100 f8 2c 99 3c 72 04 11 3d fb 64 14 3d b0 1d 3a bd
       0.0186982 0.03540463 0.036229115 -0.04543847
000110 6a 6d 6b bd cd db 8e bd 7b 37 fb bd dc 2a 1e be
       -0.057477392 -0.069755174 -0.122664414 -0.15446037
000120 7a 38 72 be c0 1e 5c be a6 27 4e bd fe 9e ba 3c
       -0.23654357 -0.21496105 -0.05033078 0.022780892
000130 2c 26 91 ba c7 d7 2a 3d f7 96 99 3d 92 e7 90 3d
       -0.0011073998 0.041709688 0.074994974 0.070754185
000140 67 f8 53 3d 05 d0 b4 3d 64 9c ad 3d a9 57 36 3d
       0.051750567 0.08828739 0.08477095 0.044517193
000150 40 6d 16 3d 27 52 89 3d 41 12 ae 3d d8 d0 b2 3d
       0.036725283 0.067051224 0.084995754 0.0873124
000160 6e c4 42 3d 30 81 84 3d 97 21 17 3d 4f 2e f0 3d
       0.04755061 0.06469953 0.03689727 0.11727583
000170 59 f3 30 3d 65 4a 90 be af 7c 71 be 04 f0 65 bd
       0.043200824 -0.2818176 -0.2358272 -0.0561371
000180 5b 6a b9 bd e5 40 18 bd 86 81 05 be 3a 13 22 be
       -0.09053489 -0.037171263 -0.1303769 -0.15827647
000190 0e fe 95 3e 2f 11 65 bd 86 e4 bc be 72 af cb be
       0.2929539 -0.05592459 -0.368931 -0.39782292
0001a0 08 80 d2 be 13 58 fa be 42 ab 6c be 9c ab 85 3c
       -0.41113305 -0.4889532 -0.23112205 0.016317181
0001b0 8d 68 06 3e a1 81 40 3d 80 99 97 3d 1c 1d 35 3d
       0.1312582 0.046998624 0.07402325 0.044217214
0001c0 03 bd 31 3d 2c b5 84 3d 9f d7 71 3d 69 ef b6 3d
       0.043393146 0.06479868 0.059043523 0.089323826
0001d0 da 82 c9 3c f6 68 af bc b1 7c 0f 3c 24 a0 83 3d
       0.024598528 -0.021412354 0.008757756 0.06427029
0001e0 b5 b6 88 3e da 68 d9 3d 10 5c 1c be 44 e9 00 3e
       0.26701894 0.10615702 -0.15269494 0.12588984
0001f0 98 dc 85 be 83 77 36 be 46 c9 8d bd e2 62 3f be
       -0.26144862 -0.17819028 -0.069231555 -0.18690065
000200 5d 91 11 be 08 14 d6 bd d9 0b 4e be ab d3 b4 bd
       -0.14215608 -0.104530394 -0.20121707 -0.08829435
000210 57 6c 53 be 88 e3 25 bf 2c 9f ba bc f0 e4 c0 3e
       -0.20646797 -0.6480031 -0.022780977 0.37674665
000220 14 28 58 bd 88 58 40 bd 58 ba 8e 3d d1 54 9f 3d
       -0.052772596 -0.04695943 0.06969136 0.07779849
000230 2c 52 2f 3d 64 0f 46 3d d1 e9 ab 3d 5a 1e 95 3d
       0.042802975 0.04835452 0.08394206 0.0728118
000240 e9 cf 9d bd ff 63 36 be 29 00 f4 3b e2 73 08 3e
       -0.07705671 -0.17811583 0.007446308 0.13325456
000250 ce d7 01 3e 89 48 6b bd 3f 78 b3 3c 6d 4b 11 be
       0.12679979 -0.05744222 0.021907924 -0.14188929
000260 29 b3 64 be dc 76 19 3e 10 b6 8d 3e 29 da 84 3e
       -0.22333969 0.14986748 0.27677965 0.25947693
000270 10 70 ac 3e d0 07 06 3f 4d a8 b9 3e f2 24 9c 3e
       0.33679247 0.5235567 0.36261216 0.30496937
000280 21 e2 9d 3e e1 4a b0 3d 06 96 4d 3e b6 e1 4e bd
       0.30836585 0.08608032 0.2007676 -0.050508223
000290 b2 63 4f be 5b 72 ee be 49 ef e5 bd cb fe 98 bc
       -0.20252874 -0.4657162 -0.11227281 -0.018676182
0002a0 97 97 ba 3d a1 8e 12 3d f8 28 eb 3c 7e 65 d7 3c
       0.09110945 0.035780553 0.028706059 0.026293512
0002b0 c4 c4 1d be 60 27 ec bd aa 37 56 3b 71 e6 4a 3e
       -0.15407091 -0.11530948 0.0032686987 0.19814469
0002c0 dc a4 db 3c 9c 4b c9 bd 7a df 3d be 9d 12 75 be
       0.02681201 -0.098288745 -0.18542281 -0.23932882
0002d0 a5 d7 39 be 76 b8 55 3e f0 0b 99 3d b6 f6 bc 3e
       -0.18148668 0.20871148 0.0747298 0.36906976
0002e0 9e 13 a3 3e 77 68 b8 3e aa f3 ef 3e 73 21 d1 3e
       0.31850904 0.360172 0.46865588 0.40845832
0002f0 61 ac c1 3e b9 5b 26 3f b3 b0 fb 3e 19 16 f2 bc
       0.37826827 0.6498371 0.49158248 -0.029551553
000300 ec 08 11 bf 56 9c 50 bf 55 72 93 be 17 ce 64 bd
       -0.5665424 -0.8148855 -0.28798166 -0.055860605
000310 0f 02 20 3d 6c 78 b1 3c 0f 3f e1 3b bf 14 25 3d
       0.039064463 0.021663867 0.0068739722 0.04030299
000320 db c9 00 be d7 b7 34 be 7b df 9f 3d d1 56 42 be
       -0.12577002 -0.17648254 0.078062974 -0.1897843
000330 14 92 d4 be e9 60 be 3b 4d 68 dd bd cc 70 91 bd
       -0.415177 0.0058098924 -0.108109094 -0.071015924
000340 66 22 24 3e ea f3 d1 3e 61 08 9a 3e 34 cd 9e 3e
       0.16028747 0.41006404 0.30084518 0.31015933
000350 91 af 64 3e 23 e4 09 3f db 4a bb 3e 59 81 7c 3e
       0.22332598 0.53863734 0.36580548 0.24658717
000360 e3 09 25 3e 5b 2b 3d 3e d3 2b a8 3e fe 4a d4 3e
       0.16117053 0.1847357 0.32845935 0.41463464
000370 af 6f 3f 3b d8 1d 05 bf 3b 7a 61 be e8 0e 7e 3d
       0.0029210856 -0.5199866 -0.22019283 0.062025934
000380 4e 66 90 3d df 79 b1 3c 55 6a 82 3d e3 b2 d4 3c
       0.07050763 0.021664558 0.063679375 0.025964206
000390 f3 62 6e be 51 3d 20 be a3 22 9d be 2a cf ef be
       -0.23279934 -0.1564839 -0.30690488 -0.4683774
0003a0 01 6a d7 be 67 f2 6a be 54 1e 14 3d d9 3e a3 3d
       -0.42073062 -0.22944032 0.036161736 0.079709716
0003b0 ed f0 22 bd ad cb eb 3d 07 e6 bb 3e 2d ad 9f 3e
       -0.039780546 0.115134574 0.36698934 0.3118681
0003c0 78 49 1f 3f 96 02 20 3f 22 3f 8e 3e 2f d0 7e 3d
       0.6222148 0.62503946 0.27782542 0.062210258
0003d0 64 22 a5 3d 50 30 d0 3b 65 7b 8b 3e 45 4c 48 3f
       0.080632 0.0063534155 0.2724258 0.7824138
0003e0 6f d9 b9 3d 7a a9 43 bf a9 10 4e be e2 92 98 3d
       0.09074675 -0.76430476 -0.20123543 0.07449891
0003f0 d3 3b d2 3c 8c de a0 3d 95 e0 1e 3d 9f f2 ae bd
       0.025663292 0.078549474 0.038788397 -0.0854237

1.bias f4 [10]
000000 fc cc 35 bd 97 9c 02 be 13 04 ad 3d 9b c4 9e 3d
       -0.04438494 -0.12755047 0.08448043 0.07752343
000010 81 01 d2 bd 4b 76 12 3e 41 dd 0d ba ae 3a 3b 3b
       -0.10254193 0.14302938 -0.00054116925 0.0028568911
000020 3c 1a 8a 3c 30 37 13 bb
       0.016858213 -0.0022463314
